model.pth (torch, 267626 bytes, 13 tensors)

rnn.weight_ih_l0 f4 [128, 300]
0	0xbe1db3ac	-0.1540057
1	0xbcfe2252	-0.031022225
2	0x3d8a17ca	0.06742819
3	0x3dd30271	0.103032
4	0x3da8fba0	0.08251119
5	0xbd76c6eb	-0.060248297
6	0x3d59d677	0.053183045
7	0xbdcae3a5	-0.09906701
8	0x3db8989f	0.09013485
9	0xbd5223dc	-0.05130373
10	0x3e05f5c0	0.13082027
11	0x3e2d5680	0.16927528
12	0xbd40af79	-0.047042344
13	0xbe3449aa	-0.17606226
14	0x3d371934	0.04470177
15	0x3ca22c71	0.019796582
16	0xbe2b921c	-0.16754955
17	0xbe0f200b	-0.13977067
18	0x3d65c69f	0.056097623
19	0x3de81967	0.1133297
20	0xbd748a20	-0.05970204
21	0xbd420c2d	-0.047374893
22	0xbc63d209	-0.013905057
23	0xbdc1fefb	-0.09472462
24	0xbc3fceee	-0.011707051
25	0x3dc0167d	0.09379289
26	0x3b5c6e73	0.0033635169
27	0x3c72bc93	0.014815467
28	0xbcc115a9	-0.023569899
29	0x3d5cbd36	0.053891383
30	0x3e0bf0b5	0.13666041
31	0xbda44922	-0.080217615
32	0x3c9dc1d3	0.019257462
33	0x3cc39caa	0.023878414
34	0x3dbaa2bc	0.0911307
35	0xbda63ccf	-0.08117067
36	0xbdf17479	-0.117897935
37	0xbd9d0683	-0.07667258
38	0xbe1cda41	-0.15317632
39	0x3ca3fa99	0.020016955
40	0xbd846c4a	-0.06465967
41	0x3de37574	0.11106387
42	0x3cb4ebaa	0.02208503
43	0x3d8723e7	0.06598645
44	0xbd831e9d	-0.064023234
45	0xbd941291	-0.07230104
46	0xbdb48b15	-0.0881559
47	0xbc8822d3	-0.016618168
48	0xbcb7aacd	-0.022420311
49	0x3d11d8f6	0.0356073
50	0xbe075bbe	-0.1321859
51	0x3ddca53b	0.10773703
52	0xbd987a61	-0.07445217
53	0xbd703892	-0.0586477
54	0x3ca4f945	0.020138392
55	0xbcae96ed	-0.021312201
56	0x3dd44d61	0.10366321
57	0xbe04c442	-0.12965491
58	0x3b320961	0.0027166235
59	0xbd0b8d76	-0.034070455
60	0x3e295704	0.165371
61	0xbe14fb45	-0.14548977
62	0xbc45df69	-0.012077191
63	0xbcf7c382	-0.030244593
64	0x3d3da1e9	0.046296988
65	0xbd383b2d	-0.04497831
66	0xbd1ab58f	-0.037770804
67	0xbd8673bb	-0.065650426
68	0x3daa9445	0.083290614
69	0xbd719319	-0.058978174
70	0x3c60a3f4	0.0137109645
71	0xbd5d98a0	-0.054100633
72	0x3e02b1b7	0.12763105
73	0x3df7f7f3	0.121078394
74	0x3e29939c	0.16560215
75	0xbd0bb091	-0.034103934
76	0xbdc93b23	-0.098257326
77	0x3cef1db1	0.029188963
78	0xbc94d392	-0.01816729
79	0xbcf9c41e	-0.030489024
80	0xbd494b79	-0.049144242
81	0x3dc05627	0.09391432
82	0xbd9ab8cf	-0.07554781
83	0x3c67c8d4	0.014147002
84	0x3d2aadb1	0.04166955
85	0x3d819de1	0.06328941
86	0xbc2cdf2a	-0.010551253
87	0xbe1ea3f4	-0.1549223
88	0x3c3d9bc4	0.011572782
89	0x3ceccc10	0.028905898
90	0xbe242276	-0.16028771
91	0x3e0fd9cc	0.14047927
92	0xbd4ad600	-0.049520493
93	0x3dca3199	0.09872741
94	0x3dff4c3c	0.124657124
95	0xbdc4cf53	-0.096098565
96	0x3d23c6c7	0.03998449
97	0x3dc85127	0.097811036
98	0x3c3995d8	0.011327229
99	0xbbb2681a	-0.005444539
100	0xbd6511f9	-0.055925343
101	0x3cbf41cd	0.023346806
102	0x3df8fc5b	0.12157508
103	0xbd17148a	-0.036884822
104	0x3daf92a2	0.0857289
105	0x3d0f87fa	0.035041787
106	0xbd9c719b	-0.07638856
107	0x3dac5b54	0.08415857
108	0xbd4de809	-0.050270114
109	0xbd415314	-0.04719837
110	0x3d3b8148	0.04577759
111	0x3cadbb7c	0.021207564
112	0xbbfd62f6	-0.0077327443
113	0x3ceb5fb8	0.028732166
114	0xbd9d8c90	-0.07692826
115	0xbcd06a55	-0.025441328
116	0x3da42823	0.08015468
117	0xbcd06d81	-0.02544284
118	0xbcd5c1e7	-0.026093436
119	0x3ccf695d	0.025318796
120	0xbc6f713e	-0.014614401
121	0x3e389f81	0.18029596
122	0xbd82e1f7	-0.063907556
123	0xbdcf8479	-0.10132689
124	0xbd7aa0e1	-0.061188582
125	0x3cd2b6d5	0.025721947
126	0x3cb4e308	0.022080913
127	0xbc3a234a	-0.011360953
128	0x3d2c69cd	0.042093087
129	0x3c2be256	0.010490974
130	0x3dcb1c3d	0.099174954
131	0xbdbc310a	-0.09189041
132	0x3cbbff0b	0.022948762
133	0xbd5bb69d	-0.05364095
134	0xbd2f647a	-0.04282043
135	0x3c8cf6f2	0.017207596
136	0x3bb02f3a	0.0053767236
137	0xbde7bf74	-0.11315814
138	0xbda3c997	-0.079974346
139	0x3dbb62a0	0.091496706
140	0x3d41000a	0.047119178
141	0xbda37b35	-0.07982484
142	0xbce88d66	-0.028387737
143	0x3c622c84	0.013804559
144	0xbd099f22	-0.033599027
145	0xbd88a4d5	-0.06672064
146	0x3e00551e	0.1253247
147	0xbd71c140	-0.05902219
148	0xbd6bbe1f	-0.05755436
149	0xbe00c1af	-0.12573884
150	0x3df21198	0.11819762
151	0xbbfafcb4	-0.007659519
152	0x3e4a2dc8	0.19744027
153	0x3d5351c4	0.05159165
154	0x3db2af52	0.08724846
155	0xbbe262bb	-0.0069087422
156	0x3da96f4b	0.082731806
157	0xbd3cb67b	-0.046072464
158	0x3d83cfee	0.06436144
159	0xbd87d8c6	-0.06633143
160	0xbd7a2db4	-0.061078742
161	0xbd403531	-0.046925727
162	0xbc6f4828	-0.014604606
163	0x3daf84b1	0.08570231
164	0x3d7784e9	0.060429487
165	0x3c21d204	0.009876732
166	0xbcd66ed2	-0.02617589
167	0x3cb6a144	0.022293694
168	0xbb382d57	-0.0028103197
169	0xbcb4ce03	-0.02207089
170	0xbdada212	-0.08478178
171	0xbd35eabb	-0.04441331
172	0xbd8aadb9	-0.06771416
173	0xbdc7a054	-0.09747377
174	0x3ddd02e5	0.10791568
175	0x3e1127ff	0.14175414
176	0xbd84e673	-0.06489267
177	0xbd7ae6c1	-0.06125522
178	0xbcb848ed	-0.022495711
179	0xbd153394	-0.03642614
180	0x3d003e41	0.03130937
181	0x3e083b00	0.13303757
182	0xbd0d43e3	-0.03448857
183	0x3cb92668	0.022601321
184	0x3dd56fbd	0.10421703
185	0xbdd33ac8	-0.10313946
186	0xbd0638fd	-0.032769192
187	0x3e25486b	0.16140907
188	0xbcb56d26	-0.022146773
189	0xbd7a9e1a	-0.061185934
190	0xbdedf9e8	-0.116199315
191	0x3cc0ba23	0.023526257
192	0x3d05f94a	0.032708444
193	0x3e2e2237	0.1700524
194	0x3d630521	0.055424813
195	0x3d6c4a2e	0.05768793
196	0x3bb34084	0.0054703373
197	0x3d42c0f7	0.047547307
198	0xbc5fc8b4	-0.013658691
199	0xbc799b87	-0.0152348345
200	0x3d86cb66	0.06581764
201	0xbd9c8ea5	-0.07644395
202	0xbc15f347	-0.00915224
203	0xbd0bd895	-0.034142096
204	0xbe39f3d2	-0.18159416
205	0x3e0cb12b	0.13739459
206	0x3d8c9d5d	0.06865952
207	0x3c882e50	0.016623646
208	0xbcdd7d26	-0.027037214
209	0x3d8ecc23	0.0697253
210	0x3dfa9d4f	0.122370355
211	0xbd3d8606	-0.046270393
212	0x3d35ac92	0.04435403
213	0xbd885fbb	-0.06658884
214	0xba2291ec	-0.00062015536
215	0xbdff84c4	-0.12476495
216	0x3e4d2a7b	0.20035736
217	0xbda09938	-0.07841724
218	0xbd1b10c9	-0.037857804
219	0xbc884ca6	-0.016638111
220	0x3b0beb7e	0.002135008
221	0x3d3af5b7	0.04564449
222	0xbd5e638a	-0.054294147
223	0x3c0cfad2	0.008604722
224	0x3b1825f3	0.002321598
225	0x3d97f6ac	0.07420096
226	0x3cc9e048	0.024643078
227	0xbca8f077	-0.020622475
228	0xbde70f17	-0.11282175
229	0xbd3d46aa	-0.04620997
230	0xbca0b15b	-0.01961582
231	0x3c33eee4	0.010982249
232	0xbcdba35f	-0.0268113
233	0x3d847386	0.06467347
234	0xbd0020c4	-0.031281248
235	0x3e1b2ad5	0.15153058
236	0xbd72d33f	-0.05928349
237	0xbd283593	-0.041066717
238	0xbe1f1e93	-0.15539007
239	0xbcbf2faa	-0.023338158
240	0xbcad53c1	-0.021158101
241	0xbd25fc58	-0.040523857
242	0x3e025661	0.12728263
243	0xbd0866e2	-0.03330124
244	0xbd8c4672	-0.06849374
245	0x3dfb166b	0.12260135
246	0x3b1626c3	0.0022911287
247	0xbe1342b6	-0.14380917
248	0x3defb50a	0.11704452
249	0x3dd30f57	0.1030566
250	0x3cc42879	0.02394508
251	0xbc3d9587	-0.011571295
252	0x3dbf175f	0.093306296
253	0x3d841be9	0.06450636
254	0xbd2f69c0	-0.04282546
255	0x3d330524	0.043706074

rnn.weight_hh_l0 f4 [128, 128]
0	0x3c72477f	0.014787554
1	0xbca095cf	-0.019602684
2	0x3d5e5fa2	0.05429042
3	0x3dd698be	0.10478352
4	0x3d5fec83	0.054668915
5	0xbdb53841	-0.0884862
6	0xbde26d33	-0.11055984
7	0xbdddfedf	-0.108396284
8	0xbd6f9880	-0.058495045
9	0xbcd4a784	-0.025958784
10	0xbd4c334e	-0.049853615
11	0xbc9217dd	-0.017833645
12	0xbc3bfcd0	-0.011473849
13	0xbcf73a70	-0.030179232
14	0xbd453ba5	-0.048152585
15	0xbd9518a9	-0.07280094
16	0xbc98d9dd	-0.018658573
17	0x3d35e7f4	0.04441066
18	0xbbc9410d	-0.006141788
19	0x3c4e7e3a	0.012603337
20	0x3d899e48	0.06719643
21	0xbd97f14a	-0.07419069
22	0x3d141b1b	0.036158662
23	0xbd8a2d88	-0.06746966
24	0xbd61869c	-0.055060014
25	0x3c553a9e	0.013014464
26	0x3d2499d0	0.04018575
27	0x3d0a639a	0.033786394
28	0xbd3ba1d2	-0.04580862
29	0xbdcd65ae	-0.100291595
30	0xbd92da55	-0.0717055
31	0x3d5c3d37	0.053769317
32	0x3dcc3a4d	0.099720575
33	0x3aa238c5	0.0012376538
34	0x3bcb631e	0.006206884
35	0xbd01728d	-0.031603385
36	0xbd8f5c81	-0.070000656
37	0x3c2d7e57	0.010589204
38	0xbd9c4344	-0.076300174
39	0x3dbb8c24	0.09157589
40	0x3be5d8ce	0.0070143705
41	0xbd41dc66	-0.04732933
42	0x3cb0f20a	0.021599788
43	0x3c43a68c	0.011941563
44	0xbca0e68e	-0.019641187
45	0xbd17a4a6	-0.037022255
46	0x3c77292b	0.015085499
47	0x3cc1869e	0.02362376
48	0xbd73d38d	-0.059527922
49	0xbcbf5cdc	-0.023359708
50	0x3d20fa6f	0.039301332
51	0x3d9bff10	0.07617009
52	0x3b6d3bcd	0.0036198974
53	0x3d66b668	0.0563263
54	0xbb7ce2dc	-0.0038587367
55	0xbd982ef5	-0.07430831
56	0xbc4c6801	-0.012475968
57	0x3d5cae09	0.05387691
58	0xbc9df162	-0.01928014
59	0xbda0861a	-0.07838078
60	0xbd248ba0	-0.04017222
61	0xbcc0f85c	-0.023555927
62	0x3dd74422	0.10511042
63	0x3c433e57	0.011916718
64	0xbd7235eb	-0.05913345
65	0x3bbaec4c	0.0057044383
66	0xbd70caf2	-0.058787294
67	0xbccd32e3	-0.025048679
68	0xba7daf29	-0.0009677285
69	0xbe23b29c	-0.15986103
70	0x3de2271b	0.11042615
71	0xbd4c2cb4	-0.04984732
72	0xbc975ce1	-0.018476905
73	0xbd374a74	-0.04474874
74	0x3b948853	0.0045328527
75	0xbbad733c	-0.005293278
76	0xbd7b03ef	-0.06128305
77	0xbdbd81a5	-0.09253243
78	0xbc344861	-0.011003585
79	0x3c23d7ac	0.010000151
80	0xbd24f16c	-0.0402693
81	0x3d7212b4	0.059099868
82	0xbd663bd6	-0.056209408
83	0xbcd10115	-0.025513211
84	0x3c1889f3	0.009310233
85	0xbd2dd696	-0.042440973
86	0x3d348f55	0.044082005
87	0x3cf2ebfa	0.029653538
88	0x3d09dea7	0.033659603
89	0xbd66405d	-0.056213725
90	0x3bd0cc71	0.0063720276
91	0x3d2c100a	0.042007484
92	0xbd58695a	-0.052834846
93	0x3d454627	0.048162606
94	0xbdb9d4dd	-0.090738036
95	0x3b686f6e	0.0035466808
96	0x3cd343e1	0.025789203
97	0xbc3bb6a0	-0.011457115
98	0xbcda78ac	-0.026668869
99	0x3d3a3af8	0.045466393
100	0x3d845a5b	0.064625464
101	0xbd06baff	-0.032893177
102	0xbdad37cc	-0.08457908
103	0xbd18d447	-0.03731182
104	0x3d8f4f1f	0.06997513
105	0xbd3f04d5	-0.046635468
106	0xbdb5853e	-0.088633046
107	0xbc9a04f0	-0.018801183
108	0x3cc2afbe	0.023765441
109	0x3d295451	0.041340176
110	0xbd4714f6	-0.048603974
111	0xbb0cf63e	-0.0021509076
112	0x3cee6c01	0.029104235
113	0x3e22af9d	0.15887304
114	0x3d3c7469	0.046009455
115	0x3d20f589	0.03929666
116	0xbd955c39	-0.07292981
117	0x3c5db961	0.013532967
118	0xbd32bb92	-0.043635912
119	0x3b847650	0.0040424243
120	0xbdbee212	-0.09320463
121	0xbdbe742f	-0.09299504
122	0x3de4bd38	0.11168903
123	0xbdd7b56a	-0.10532649
124	0x3bae94c4	0.005327793
125	0xbd89e2a9	-0.06732685
126	0xbd314799	-0.04328117
127	0xbd758dfe	-0.059949867
128	0xbd90a6fc	-0.070631
129	0xbdd3bbff	-0.10338592
130	0x3d7b3eb5	0.0613391
131	0x3d0e8062	0.034790404
132	0xbd9e0a37	-0.07716792
133	0xbd30ae0e	-0.04313474
134	0xbd09892b	-0.03357808
135	0x3d04366d	0.032278467
136	0xbc046e47	-0.008082933
137	0xbdaca37c	-0.0842962
138	0xbd6452d7	-0.055743065
139	0xbc95d03e	-0.018287774
140	0xbd6e7f04	-0.0582266
141	0x3921e186	0.0001543817
142	0x3b1b073f	0.0023655442
143	0xbcd95899	-0.026531504
144	0x3d50785c	0.050896034
145	0x3d85d05f	0.06533884
146	0x3d1c4ec6	0.03816106
147	0xbda37163	-0.07980611
148	0xbbe9230d	-0.007114774
149	0xbd008e61	-0.031385783
150	0xbe03573b	-0.12826245
151	0xbd5aed84	-0.05344917
152	0xbcdc9638	-0.026927099
153	0x3bce25d0	0.0062911287
154	0x3da5e162	0.08099629
155	0x3d3169ee	0.043313913
156	0x3d6594e5	0.0560502
157	0x3c017887	0.007902271
158	0xbd01b785	-0.03166916
159	0x3c900312	0.017579589
160	0x3dceaa4f	0.100910775
161	0xbc84550f	-0.01615384
162	0x3d175268	0.036943823
163	0xbcf84244	-0.030305035
164	0x3d3c016d	0.045899797
165	0x3d0c0dfb	0.03419302
166	0xbcca1abd	-0.024670953
167	0x3c96bab5	0.018399576
168	0xbd04f88a	-0.032463588
169	0x3d416c34	0.04722233
170	0x3d15e0bd	0.03659128
171	0x3bfd0887	0.007721964
172	0x39fb8cb5	0.00047979286
173	0xbd77e93c	-0.060525164
174	0xbc55b43c	-0.0130434595
175	0xbd0832a1	-0.03325141
176	0x3daeb496	0.08530538
177	0x3bf1f801	0.0073843007
178	0x3bbb7fe7	0.0057220343
179	0xbce42003	-0.027847296
180	0xbc02074b	-0.007936309
181	0xbd46ea30	-0.048563182
182	0xbd6e467d	-0.05817269
183	0xbd5f870b	-0.054572146
184	0x3ca1b4e7	0.019739581
185	0xbbc53ada	-0.0060189785
186	0xbc9cb797	-0.019130511
187	0x3d1f01a1	0.038819913
188	0xbd14da3c	-0.036340937
189	0xbdac720f	-0.084201925
190	0xbce639db	-0.02810376
191	0xbbfdc79f	-0.007744744
192	0x3d783d05	0.060605068
193	0xbd140454	-0.03613694
194	0xbdb96b9d	-0.09053729
195	0x3dc3ff90	0.09570229
196	0x3de17f0e	0.11010562
197	0x3d80047b	0.062508546
198	0x3cbf0374	0.023317076
199	0x3bc1265e	0.0058944663
200	0x3d087e5b	0.033323627
201	0x3ca66bc8	0.020315066
202	0x3d883ad3	0.06651845
203	0x3d541f8d	0.0517879
204	0x3c8d2332	0.017228696
205	0xbd3d996d	-0.046288896
206	0x3d4c64cb	0.04990081
207	0x3d975b70	0.07390487
208	0xbc754325	-0.014969622
209	0xbc7f76c4	-0.015592281
210	0xbc9e1e61	-0.019301595
211	0xbd0e04fa	-0.034672715
212	0xbda9e750	-0.082960725
213	0x3d4682bd	0.048464525
214	0x3bfbcd58	0.007684391
215	0xbd9ca502	-0.0764866
216	0xbd887e30	-0.06664693
217	0xbd07f6e1	-0.033194426
218	0x3d0deb7d	0.034648407
219	0x3c83f116	0.01610617
220	0xbd018e2e	-0.031629734
221	0xbcac2c60	-0.021017253
222	0x3d07f331	0.03319091
223	0xbb93671b	-0.004498375
224	0x3d5542c8	0.05206564
225	0xbcf1d5d1	-0.0295209
226	0x3cd6853b	0.026186576
227	0x3c33d6bd	0.010976491
228	0xbde6bd3d	-0.11266563
229	0xbd9da1fc	-0.07696912
230	0xbd99aa0f	-0.07503139
231	0xbddb7481	-0.10715581
232	0x3cd17328	0.025567606
233	0x3a9e72be	0.0012088639
234	0x3d3a0a40	0.04541993
235	0xbce2aa0b	-0.027668973
236	0xbd251996	-0.040307604
237	0x3b8ff2a4	0.0043929387
238	0x3a920c3b	0.0011142561
239	0x3ccae6f6	0.024768334
240	0xbbb08bfb	-0.0053877807
241	0xbbe6dd2c	-0.0070454087
242	0xbd8a9a79	-0.067677446
243	0xba1aa540	-0.0005899258
244	0xbc80bd59	-0.015715288
245	0xbbed6cd2	-0.0072456384
246	0xbd573b26	-0.052546643
247	0x3cf8cccc	0.030371092
248	0xbd34507c	-0.04402207
249	0xbda3ab83	-0.07991698
250	0xbc81fdd3	-0.015868103
251	0xbceee4d3	-0.029161846
252	0xbd3dcc49	-0.0463374
253	0xbe0424d4	-0.12904674
254	0x3cc5bd19	0.02413802
255	0x3d02bcde	0.0319184

rnn.bias_ih_l0 f4 [128]
0	0xbd86c16d	-0.06579862
1	0xbe2d0f1f	-0.169003
2	0xbec14bfd	-0.37753287
3	0xbe10ee72	-0.1415346
4	0xbe7639db	-0.24045508
5	0x3d8d6c26	0.06905393
6	0x3edf8e5d	0.43663302
7	0xbe2f6084	-0.17126662
8	0xbe188ff7	-0.14898668
9	0xbebce248	-0.3689139
10	0x3e860092	0.2617231
11	0xbed3d7ce	-0.41375583
12	0x3e2a54a3	0.16633849
13	0x3df134c1	0.1177764
14	0xbdb11844	-0.086472064
15	0x3d81c8fa	0.06337161
16	0x3e9a94a6	0.30191535
17	0xbe193bea	-0.14964262
18	0xbe07ac2c	-0.13249272
19	0xbdaeb5a6	-0.085307404
20	0xbe5cc973	-0.21561222
21	0xbe0abcf3	-0.13548641
22	0xbe8c10f2	-0.27356678
23	0x3e73be63	0.23803096
24	0xbd99fa9c	-0.07518503
25	0xbd4976f0	-0.049185693
26	0x3e7d7e29	0.24755158
27	0xbd23e329	-0.04001156
28	0x3e38f4c9	0.18062128
29	0x3e488efd	0.19585796
30	0xbe43e240	-0.19129276
31	0xbeb84c60	-0.3599577
32	0x3d3b17bf	0.045676943
33	0x3e0cfcef	0.13768362
34	0x3ea2120c	0.31654394
35	0x3da14a4b	0.078754984
36	0xbe2a8acc	-0.1665451
37	0xbe1654d1	-0.14680792
38	0x3da58c98	0.08083457
39	0xbe082649	-0.13295855
40	0xbd1faa06	-0.038980506
41	0x3d6712aa	0.056414284
42	0xbe139e27	-0.14415799
43	0x3ea44c95	0.32089677
44	0x3e3827c5	0.17983921
45	0xbc16cf35	-0.009204675
46	0x3d858817	0.06520098
47	0xbd7ebf24	-0.062194005
48	0x3e2578c3	0.16159348
49	0x3dfc46e2	0.12318207
50	0xbd068622	-0.032842763
51	0x3e2845fd	0.16432948
52	0x3e30aa33	0.17252426
53	0xbde549c8	-0.11195713
54	0xbd10fbc5	-0.035396356
55	0x3dcb08da	0.09913798
56	0xbdcf6039	-0.10125775
57	0x3920e4e1	0.00015344053
58	0xbd24da7b	-0.04024742
59	0x3d21f5c3	0.039541017
60	0x3e4d3895	0.20041116
61	0xbca7c766	-0.020480823
62	0x3db2d675	0.08732311
63	0xbb595110	-0.003315989
64	0xbe447db9	-0.19188584
65	0xbdfc587c	-0.123215646
66	0xbe47db59	-0.19517268
67	0x3e4f168c	0.20223445
68	0x3e6bf33e	0.23042008
69	0x3e280a9e	0.164103
70	0x3d80d28c	0.06290159
71	0xbdbf52e7	-0.09341984
72	0xbe938641	-0.28813365
73	0x3ca077e4	0.019588418
74	0x3e2d978f	0.16952346
75	0xbdda750f	-0.106668584
76	0x3e2bb79a	0.16769257
77	0x3e6e585f	0.23275898
78	0xbe53b87a	-0.20675841
79	0xbe228f46	-0.15874967
80	0x3eade749	0.3396552
81	0xbe0b2cc3	-0.13591294
82	0x3d5fa439	0.054599974
83	0xbcb4baa9	-0.022061663
84	0xbd9218b2	-0.071336165
85	0x3df54e9f	0.119778864
86	0xbd5621f9	-0.052278493
87	0xbd13ffae	-0.036132507
88	0xbe773964	-0.24142987
89	0xbda9d636	-0.082928106
90	0x3e0ef96b	0.13962333
91	0x3dfdc2c2	0.12390663
92	0x3e9bbb94	0.30416548
93	0x3cde606c	0.027145587
94	0x3e129415	0.14314301
95	0x3d57c658	0.05267939
96	0x3ea8dc18	0.32980418
97	0xbce650fa	-0.028114785
98	0x3ea18f1f	0.31554505
99	0x3e22ea20	0.15909624
100	0xbeadbeca	-0.33934623
101	0x3ea94536	0.33060616
102	0xbdcd7dc8	-0.100337565
103	0xbe77e841	-0.24209692
104	0x3e9767d0	0.2957139
105	0xbea2963a	-0.3175524
106	0xbc722cb6	-0.014781168
107	0xbe7cd89c	-0.24692005
108	0xbe71e3e7	-0.23622094
109	0xbd9c80a6	-0.07641725
110	0xbca3faa1	-0.02001697
111	0xbe5cd461	-0.21565391
112	0x3e44c8fa	0.19217291
113	0xbe108732	-0.14114073
114	0xbe405388	-0.18781865
115	0x3ea08d79	0.31357935
116	0xb95be35b	-0.00020970164
117	0xbe06920e	-0.13141653
118	0x3d7a74e1	0.06114662
119	0x3d6cb708	0.05779174
120	0x3caf8162	0.021424
121	0xbe074850	-0.13211179
122	0xbdb2ad54	-0.08724466
123	0xbcfbec2c	-0.030752264
124	0xbe72bf5b	-0.23705809
125	0xbdca328e	-0.09872924
126	0xbeac3b31	-0.3363891
127	0x3e26185d	0.16220231

rnn.bias_hh_l0 f4 [128]
0	0x3c1c9abe	0.009558378
1	0xbd92ff5e	-0.07177614
2	0xbea93258	-0.33046222
3	0xbe007a73	-0.1254671
4	0xbddb5901	-0.107103355
5	0x3d82fda0	0.063960314
6	0x3e9b1c51	0.3029504
7	0xbe0dc1b9	-0.1384343
8	0xbd3dd2cc	-0.04634361
9	0xbeb0289d	-0.34405985
10	0x3e93c15c	0.2885846
11	0xbea35525	-0.31900898
12	0x3d31f87b	0.04344986
13	0x3af95f4d	0.0019025594
14	0xbd8f1662	-0.06986691
15	0x3e0b5c04	0.1360932
16	0x3e780c03	0.24223332
17	0xbda93cc0	-0.0826354
18	0xbe49174b	-0.19637792
19	0xbca48894	-0.020084657
20	0xbe31b4c6	-0.17354116
21	0xbe26aff2	-0.16278055
22	0xbea5ddeb	-0.32395872
23	0x3e993769	0.29925087
24	0xbd2de74d	-0.042456914
25	0xbe30c4cf	-0.17262577
26	0x3e99e3bb	0.30056557
27	0x3da62aaa	0.08113606
28	0x3e385dd5	0.18004544
29	0x3e1edd35	0.15514071
30	0xbe12f1dd	-0.14350076
31	0xbec79f75	-0.38988844
32	0xbd17bccc	-0.037045285
33	0x3ca394f0	0.01996848
34	0x3ec49526	0.3839504
35	0xbc0343b4	-0.008011747
36	0xbded25c2	-0.11579467
37	0xbd19113d	-0.037369955
38	0x3d92d41b	0.07169362
39	0xbca63ace	-0.020291712
40	0xbce62dea	-0.028098065
41	0xbcc8194f	-0.02442613
42	0xbdc072c3	-0.09396889
43	0x3eada128	0.33912015
44	0x3e582c88	0.21110737
45	0x3d88f01a	0.06686421
46	0xbc95e333	-0.018296814
47	0xbe1d1665	-0.15340574
48	0x3e438cb6	0.19096646
49	0x3d870393	0.065924786
50	0xbe2a1d8e	-0.16612837
51	0x3e30659b	0.1722626
52	0x3d7077c7	0.05870798
53	0xbda06b76	-0.078329965
54	0x3d8a4e27	0.067531876
55	0x3d820f73	0.06350603
56	0xbe28dcc5	-0.16490467
57	0x3d0a8282	0.03381587
58	0xbd9a0b2a	-0.075216606
59	0x3d007641	0.031362776
60	0x3d882c52	0.066490784
61	0xbe0005c0	-0.12502193
62	0xbcc58d6e	-0.02411529
63	0xbe0dd915	-0.13852341
64	0xbdf2961a	-0.11845036
65	0xbe0cf664	-0.13765866
66	0xbe296185	-0.16541107
67	0x3e4e4e1d	0.20146985
68	0x3e5ef162	0.21771768
69	0x3e9ac30e	0.3022694
70	0x3d39624b	0.045259755
71	0xbd823cb9	-0.06359238
72	0xbe9c96c5	-0.30583778
73	0x3e00ff3f	0.12597369
74	0x3e870b37	0.26375744
75	0xbdf74fd6	-0.12075774
76	0x3e3018d2	0.17196968
77	0x3e5d3105	0.2160073
78	0xbde3ecb6	-0.111291334
79	0xbe422b3d	-0.18961807
80	0x3ed336d4	0.41252768
81	0xbcd030b0	-0.025413841
82	0x3e20dcf3	0.15709285
83	0xbd86723d	-0.06564758
84	0xbdd61b68	-0.10454446
85	0x3e8cada4	0.27476227
86	0xbd944a93	-0.072407864
87	0xbe0448ef	-0.12918447
88	0xbe56db17	-0.20982014
89	0xbe1774f3	-0.14790706
90	0x3d38ba46	0.04509952
91	0x3df68326	0.12036733
92	0x3e3b2ab2	0.18278006
93	0xbd5c7549	-0.05382279
94	0x3e4583c5	0.19288547
95	0x3e3b5649	0.18294634
96	0x3eb070a0	0.34460926
97	0xbca0800e	-0.019592311
98	0x3ec0de74	0.37669718
99	0x3e048485	0.12941177
100	0xbe8ebd20	-0.27878666
101	0x3e9deaa9	0.30843094
102	0xbaf3a21e	-0.0018587743
103	0xbead05d1	-0.337935
104	0x3e861d23	0.26194105
105	0xbe83bba1	-0.25729087
106	0x3d87b78e	0.06626807
107	0xbec8ab3e	-0.39193147
108	0xbe98e8c5	-0.2986509
109	0x3c7167de	0.0147342365
110	0xbd24f41c	-0.040271863
111	0xbd90966e	-0.07059942
112	0x3e748901	0.23880388
113	0xbe485b19	-0.19566001
114	0xbd8b1c66	-0.06792526
115	0x3ead0d29	0.33799103
116	0x3c26f12a	0.010189334
117	0xbe6e962c	-0.23299474
118	0x3e2a775c	0.16647094
119	0x3d8c02b7	0.06836455
120	0x3dac31ea	0.08407958
121	0xbe616c31	-0.22013928
122	0xbe11c1c0	-0.14234066
123	0x3da4d2dc	0.08048031
124	0xbe3a9dab	-0.18224208
125	0x3c73d5f0	0.01488255
126	0xbeb6f157	-0.35731003
127	0x3e78cfa7	0.24297963

main.0.weight f4 [64, 128]
0	0xbd893fe0	-0.06701636
1	0xbe0fc5ba	-0.1404027
2	0xbdf847d4	-0.12123075
3	0x3c80db42	0.01572955
4	0xbe5f24a7	-0.21791326
5	0x3badd85a	0.005305332
6	0x3e3acc12	0.18241909
7	0xbe86d800	-0.2633667
8	0xbe2d8841	-0.16946508
9	0xbd43c384	-0.04779388
10	0x3e1b7a8d	0.15183468
11	0xbe39bc48	-0.1813823
12	0x3b84fb2a	0.0040582614
13	0xbec1d759	-0.3785961
14	0xbe630526	-0.22169933
15	0x3c0dea2a	0.008661786
16	0xbd87f116	-0.0663778
17	0xbec24dfc	-0.37950122
18	0x3dd5b94d	0.10435734
19	0xbda82d2b	-0.0821174
20	0xbe677224	-0.22602135
21	0x3bbcbafe	0.005759596
22	0x3d1c89dc	0.03821741
23	0x3e094f14	0.13409072
24	0x3e14818e	0.14502546
25	0xbe466d5b	-0.19377653
26	0x3e93ee7f	0.28892896
27	0xbe742a96	-0.2384437
28	0x3d03dba2	0.03219188
29	0x3d131422	0.035907872
30	0x3e011420	0.12605333
31	0xbdfe9d04	-0.12432292
32	0x3d2a13d0	0.0415228
33	0xbe9de274	-0.30836833
34	0x3d369e1d	0.044584382
35	0x3d806e2f	0.06271016
36	0xbdbcad37	-0.092127256
37	0xbdad788d	-0.08470259
38	0x3cae9494	0.021311082
39	0x3cc840b6	0.02444492
40	0x3d802c72	0.06258477
41	0xbf269a48	-0.65079165
42	0xbd6c4276	-0.05768057
43	0x3d8c83f9	0.06861109
44	0x3e61f0c2	0.22064498
45	0xbd95a10b	-0.07306107
46	0x3c5d7954	0.013517696
47	0x3c85b03b	0.016319385
48	0xbe031766	-0.12801895
49	0x3ef3badf	0.4760351
50	0x3da8ab55	0.08235804
51	0xbd4bd363	-0.04976214
52	0x3ea11d6c	0.3146776
53	0xbec1ce0e	-0.3785252
54	0x39ce6c25	0.00039371956
55	0xbe3e6616	-0.1859363
56	0xbe8880f1	-0.26660874
57	0x3e87233e	0.26394075
58	0xbe2215a3	-0.15828566
59	0xbdcfa4cf	-0.101388566
60	0x3ee75d4b	0.45188364
61	0xbe0270a2	-0.12738279
62	0xbe310ab3	-0.17289238
63	0x3cd3396b	0.025784215
64	0x3d942e47	0.07235389
65	0xbe951666	-0.2911865
66	0x3e0c0135	0.13672335
67	0xbdf6a94c	-0.120440096
68	0xbe8b243b	-0.2717608
69	0x3daba724	0.08381489
70	0xbc9b5f54	-0.018966354
71	0xbeb69ad5	-0.35665002
72	0xbd0067ee	-0.031349115
73	0xbe079bdf	-0.13243054
74	0xbe9472e2	-0.289939
75	0x3da15331	0.078771956
76	0xbdbf5d9a	-0.09344025
77	0x3e2867ba	0.16445819
78	0x3d3074df	0.043080207
79	0x3d1ce51f	0.038304444
80	0x3d99f38d	0.07517157
81	0xbd6629d1	-0.056192223
82	0x3dab0e6b	0.083523594
83	0xbef4a8ec	-0.47785127
84	0xbf047c89	-0.51752526
85	0xbcf96608	-0.03044416
86	0xbdd16c91	-0.102257855
87	0xbdb29be5	-0.08721141
88	0xbea43213	-0.32069454
89	0xbbedbe5e	-0.0072553596
90	0xbe728f7d	-0.23687549
91	0x3e782aab	0.24235027
92	0x3d02df12	0.031951018
93	0xbdf66cb4	-0.12032452
94	0x3f0bbf30	0.54588604
95	0x3e97b40c	0.29629552
96	0x3e1b42d8	0.15162218
97	0x3e0e6331	0.13905026
98	0x3e42d2cd	0.19025727
99	0x3d1f0dc1	0.038831476
100	0xbc6fc5c7	-0.014634556
101	0x3e1034ed	0.1408269
102	0xbea976b0	-0.33098364
103	0x3b84b36c	0.004049709
104	0x3e6979fa	0.22800437
105	0xbd6a1416	-0.05714806
106	0x3d13adc2	0.03605438
107	0xbe6536a7	-0.2238413
108	0xbdec8395	-0.11548535
109	0xbdb0221a	-0.08600254
110	0x3e7aea45	0.24503429
111	0xbedb3b7e	-0.42818826
112	0x3d2b7c13	0.041866373
113	0x3c07400d	0.008255017
114	0xbead54b2	-0.3385368
115	0x3d0d4c47	0.034496572
116	0xbe3fbc74	-0.18724233
117	0xbec28c09	-0.37997463
118	0x3df4997e	0.11943339
119	0xbd494463	-0.049137484
120	0xbdafdb71	-0.08586777
121	0xbf1db306	-0.61601293
122	0xbe3bbd5e	-0.18333957
123	0x3dd04927	0.10170203
124	0xbdea58b6	-0.114427015
125	0xbe708130	-0.23486781
126	0xbde4211e	-0.11139129
127	0x3df18287	0.11792474
128	0xbd81dcca	-0.0634094
129	0xbceae98c	-0.028675817
130	0x3d7ea8d5	0.06217273
131	0x3cc5bd62	0.024138156
132	0x3e48a36b	0.19593589
133	0x3e12f5df	0.14351605
134	0x3ba0e245	0.004909786
135	0x3ca4044f	0.020021586
136	0x3e14a73c	0.1451692
137	0x3e03b73a	0.12862864
138	0xbd838404	-0.06421664
139	0x3da6886a	0.08131488
140	0xbded2fbc	-0.1158137
141	0xbd01adda	-0.03165994
142	0xbde3f212	-0.111301556
143	0x3dd9a1a9	0.10626537
144	0x3d9102f8	0.07080644
145	0xbda6e151	-0.081484444
146	0x3ca6ade7	0.020346595
147	0xbe25e1ea	-0.1619946
148	0x3d982acd	0.074300386
149	0x3e23f5b1	0.16011693
150	0x3b91adea	0.004445781
151	0xbe09555e	-0.13411471
152	0x3d46a30a	0.04849533
153	0x3d0446ee	0.032294206
154	0xbcbf1ecb	-0.023330113
155	0xbe0efe31	-0.13964154
156	0x3d3a8ff4	0.04554744
157	0x3c06066b	0.008180241
158	0xbdc41c1f	-0.09575676
159	0x3ca45379	0.020059334
160	0xbe320a00	-0.17386627
161	0x3d9e8b0d	0.077413656
162	0xbd4c60c5	-0.049896974
163	0xbdfc597c	-0.12321755
164	0xbce53893	-0.027981078
165	0x3cb08eac	0.021552406
166	0xbdae6551	-0.08515418
167	0xbbef5600	-0.007303953
168	0xbdd71dc2	-0.10503723
169	0x3d7353fa	0.05940626
170	0xbdecf4cc	-0.11570129
171	0xbd9157c1	-0.07096816
172	0x3cc57e21	0.024107995
173	0xbde57837	-0.1120457
174	0xbcc28b06	-0.023747932
175	0x3dcbbe2d	0.099483825
176	0x3b968298	0.0045932047
177	0xbe2f1dd8	-0.17101228
178	0x3c5c0449	0.013428756
179	0x3df7bc9e	0.12096523
180	0xbd116942	-0.035500772
181	0xbcb923f1	-0.022600146
182	0xbe03c57c	-0.12868303
183	0x3d3b3f08	0.04571441
184	0x3e38d2f5	0.18049224
185	0xbdc16b37	-0.09444278
186	0x3e129258	0.14313638
187	0xbcc48f9a	-0.023994256
188	0x3cad2000	0.021133423
189	0x3c8fe7d4	0.017566599
190	0xbc9f117f	-0.019417522
191	0xbdbd7804	-0.09251407
192	0xbcd1ad13	-0.025595224
193	0xbd694843	-0.05695368
194	0x3e1e58e9	0.15463604
195	0xbde99b98	-0.1140663
196	0xbda290e3	-0.07937791
197	0x3dbe8b87	0.093039565
198	0xbb2b6754	-0.0026154118
199	0x3daa3c27	0.083122544
200	0xbd02560a	-0.031820334
201	0x3d46541b	0.048420053
202	0xbc889aad	-0.016675318
203	0x3e17b805	0.14816292
204	0xbdf66597	-0.120310955
205	0x3de186af	0.11012017
206	0x3e40a25e	0.18811938
207	0xbd6f21d8	-0.058381885
208	0xbb7104a3	-0.0036776445
209	0xbdb15f79	-0.08660788
210	0xbdeaca52	-0.11464371
211	0x3dd57392	0.10422434
212	0x3e1f3d1d	0.15550657
213	0xbcf8f982	-0.030392412
214	0xbcf6fa59	-0.030148672
215	0xbd9aae90	-0.075528264
216	0x3c24d3b3	0.010060239
217	0x3cb4a1e2	0.022049848
218	0xbde87460	-0.11350322
219	0x3d4a0fa1	0.04933131
220	0xb924c0ee	-0.0001571213
221	0x3cd2bf1d	0.025725896
222	0xbe1f5049	-0.1555797
223	0xbe5a2cd8	-0.21306169
224	0xbd8c5007	-0.068512015
225	0x3d7c758e	0.061635546
226	0xbe59d42b	-0.21272342
227	0xbd641d99	-0.05569229
228	0xbd80e5a1	-0.06293798
229	0xbd95a5b7	-0.07306998
230	0xbceaddbc	-0.028670184
231	0xbdbbcde0	-0.09170127
232	0x3d88b4ef	0.06675135
233	0x3e7e0c08	0.24809277
234	0xbdde5c08	-0.10857397
235	0x3d6c42e9	0.057680998
236	0xbd7b6e57	-0.061384525
237	0xbde21eb6	-0.11041014
238	0xbdb3bc56	-0.087761566
239	0xbdaac29b	-0.08337899
240	0x3dfcbb55	0.12340418
241	0xbd5143ed	-0.05109017
242	0x3d18c7fd	0.0373001
243	0xbd2f6c0f	-0.042827662
244	0xbdaf1626	-0.08549146
245	0x3e07795b	0.13229887
246	0xbe19d871	-0.15023972
247	0xbd7b0d1f	-0.06129181
248	0xbc27aa97	-0.010233543
249	0x3e75fa2e	0.24021217
250	0xbe5eb086	-0.21747026
251	0x3d2c5350	0.04207164
252	0x3d0f9e9d	0.035063375
253	0x3d578dc0	0.052625418
254	0xbb8d469f	-0.004311397
255	0x3e0b07cc	0.13577193

main.0.bias f4 [64]
0	0x3e376f70	0.17913604
1	0x3cb3cb61	0.021947565
2	0x3e0a7228	0.1352011
3	0x3d02f91b	0.031975847
4	0xbdb8d62f	-0.09025227
5	0xbcd64fa8	-0.02616103
6	0xbdaefa98	-0.08543891
7	0xbc306049	-0.010765144
8	0x3d26acd2	0.040692158
9	0x3cc87ef3	0.024474597
10	0x3cd20d3e	0.02564108
11	0xbc12d387	-0.008961565
12	0xbd03705d	-0.03208958
13	0xbd7949c5	-0.060861368
14	0xbdb99864	-0.09062269
15	0x3da2fd6c	0.07958493
16	0x3c6fe260	0.014641374
17	0x3da7bd45	0.08190397
18	0xbd39efdd	-0.045394767
19	0xbdec220c	-0.115299314
20	0xbba5c836	-0.0050592674
21	0xbdcc1b2d	-0.09966121
22	0xbddc9a9d	-0.10771678
23	0xbd40ff1a	-0.047118284
24	0x3d0ef145	0.03489806
25	0xbd40f0af	-0.047104534
26	0x3e16a358	0.14710748
27	0x3c9c405f	0.019073663
28	0xbc8f43a1	-0.017488303
29	0x3db28dc3	0.08718445
30	0x3de26b79	0.11055655
31	0x3e584ee9	0.21123852
32	0xbd89b12a	-0.067232445
33	0xbd06fe4f	-0.03295737
34	0xbdbdc6f6	-0.092664644
35	0x3d819af5	0.06328384
36	0x3ccd70ba	0.025078166
37	0xbdbc17f7	-0.091842584
38	0x3e5b1a5d	0.21396776
39	0x3e298fb1	0.1655872
40	0xbc61de60	-0.0137859285
41	0x3cdf6bdb	0.02727311
42	0xbb946152	-0.004528203
43	0x3c1c828d	0.00955261
44	0xbd005ad0	-0.031336606
45	0xbdb9b6ff	-0.09068107
46	0x3c0523f5	0.008126249
47	0x3bf91c85	0.0076022767
48	0xba0c64da	-0.0005355604
49	0xbd9ad7f1	-0.07560719
50	0xbe35ca22	-0.17752889
51	0xbcead0e9	-0.02866407
52	0x3d2866e4	0.04111375
53	0x3e1d4f8b	0.15362374
54	0x39b45595	0.0003439604
55	0xbd8e8252	-0.069584504
56	0x3e3c9ab3	0.18418388
57	0xbdd266ba	-0.102735
58	0x3cbc9a89	0.023022907
59	0x3e5711bc	0.21002859
60	0xbd22ea15	-0.03977402
61	0x3e1d7581	0.15376855
62	0xbd8b80f4	-0.06811705
63	0x3ccdb100	0.025108814

main.2.weight f4 [32, 64]
0	0x3ca8704a	0.020561356
1	0xbddbae4b	-0.10726603
2	0x3d1c608d	0.038178016
3	0xbdec7754	-0.115461975
4	0x3d715f6b	0.05892889
5	0xbe5396ce	-0.20662996
6	0xbd8addc4	-0.0678058
7	0x3a9f8e19	0.0012173086
8	0xbc755f61	-0.014976353
9	0x3d81386f	0.06309592
10	0x3c958cdb	0.018255642
11	0x3e007dd2	0.12547997
12	0xbe008dbc	-0.12554067
13	0xbdda5a27	-0.106617264
14	0x3caba25c	0.020951442
15	0x3c1e1cd2	0.009650426
16	0xbdb633ec	-0.08896622
17	0xbcbb0ddf	-0.022833763
18	0xbdcba481	-0.09943486
19	0x3d90c508	0.07068831
20	0xbdcc0a4f	-0.09962904
21	0xbcbbb0ef	-0.022911517
22	0xbe4d1b75	-0.20030005
23	0xbe2090af	-0.15680192
24	0xbe64bf3e	-0.22338578
25	0xbd7292eb	-0.059222143
26	0xbe1537c5	-0.14572056
27	0xbd015486	-0.03157475
28	0xbe3184a7	-0.17335759
29	0x3eaa95d6	0.3331744
30	0x3f4116dd	0.7542551
31	0x3d96f72c	0.07371363
32	0xbcc5be39	-0.024138557
33	0x3e1e10e0	0.15436125
34	0xbe1e6e48	-0.15471756
35	0xbd571275	-0.052507836
36	0x3d0d833f	0.034548994
37	0xbdf28372	-0.118414775
38	0xbcfe9f19	-0.031081723
39	0xbcfb75a6	-0.030695748
40	0xbe2df356	-0.16987357
41	0xbe2140f4	-0.15747434
42	0xbe4161fc	-0.18885034
43	0xbd0fe9b0	-0.03513497
44	0xbeb9e93e	-0.36310762
45	0xbca69ab6	-0.020337444
46	0xbd826b5d	-0.06368134
47	0xbe03ff2a	-0.12890306
48	0xbe47cff9	-0.19512929
49	0xbd215cee	-0.039395265
50	0xbe09993b	-0.13437359
51	0xbe25a08c	-0.16174525
52	0xbc592e17	-0.013255618
53	0x3b839e23	0.004016654
54	0xbe307ec0	-0.17235851
55	0xbe02c3dd	-0.12770028
56	0x3ce2e7ad	0.027698362
57	0xbc16287b	-0.009164925
58	0xbc6c9e72	-0.014442073
59	0xbd5d2659	-0.05399165
60	0xbd3f4726	-0.04669871
61	0xbe3163cc	-0.17323226
62	0xbe074cfa	-0.13212958
63	0xbc6eaae5	-0.014567112
64	0xbdbaf835	-0.09129373
65	0x3a5a4bd0	0.0008327337
66	0xbe20b855	-0.15695317
67	0x3d87c08b	0.066285215
68	0x3c5ddedb	0.013541902
69	0x3e2f2ba0	0.17106485
70	0x3d9260a7	0.07147341
71	0x3e69ba77	0.22825037
72	0xbd71f5c6	-0.05907228
73	0x3ddca8f8	0.10774416
74	0x3e1f6867	0.1556717
75	0xbe42c6af	-0.19021104
76	0x3d26667f	0.04062509
77	0x3e3b621f	0.18299149
78	0x3af30eeb	0.0018543875
79	0xbd386005	-0.045013446
80	0x3d9af9dc	0.07567188
81	0xbe8accb7	-0.2710931
82	0x3e374157	0.17896019
83	0x3e3b3465	0.18281706
84	0xbc86c3d6	-0.016450804
85	0x3c3a0a80	0.011355042
86	0xbbce084e	-0.006287611
87	0xbd771987	-0.06032708
88	0x3c3e7b28	0.011626042
89	0x3e0f71f1	0.14008309
90	0xbdbdd136	-0.092684194
91	0xbe56b06f	-0.20965742
92	0x3df1527b	0.1178331
93	0xbe9c98ab	-0.30585226
94	0xbe91eb58	-0.28499866
95	0xbd8e30ac	-0.06942877
96	0x3e3b0811	0.18264796
97	0x3cab161d	0.020884568
98	0x3e0e20cf	0.13879703
99	0x3ca1532f	0.019692985
100	0x3e28f8bd	0.16501136
101	0x3d636829	0.055519257
102	0xbeac2864	-0.33624566
103	0x3c080a05	0.00830317
104	0xb9fec1db	-0.0004859109
105	0x3dcac1c9	0.09900243
106	0xbc285d57	-0.01027616
107	0x3de493c0	0.111609936
108	0xbe010fe1	-0.12603714
109	0x3e207ac2	0.15671828
110	0x3d412a6f	0.04715961
111	0x3e3f1d1c	0.18663448
112	0x3d8b7b43	0.0681062
113	0x3e041766	0.12899551
114	0x3d2c4c81	0.042065147
115	0x3e414329	0.18873276
116	0x3cb66e90	0.022269517
117	0xbe62adf3	-0.22136669
118	0x3e04b534	0.12959749
119	0x3cf74c8b	0.030187866
120	0xbdf17521	-0.11789919
121	0x3de1f507	0.110330634
122	0xbc94f7d1	-0.018184574
123	0xbdc99028	-0.09841949
124	0x3debfa9f	0.115224116
125	0xbe39a4a9	-0.18129219
126	0x3e367884	0.1781941
127	0x3dd8e751	0.10590995
128	0xbe6aec80	-0.2294178
129	0x3d27822f	0.040895637
130	0x3e21466e	0.15749523
131	0xbc755f1f	-0.014976292
132	0x3d2e7cce	0.04259949
133	0x3d05ca3f	0.03266358
134	0xbd53f088	-0.05174306
135	0xbde47226	-0.111545846
136	0xbd76debc	-0.06027101
137	0xbbe7e52c	-0.00707688
138	0xbe33a2bc	-0.17542547
139	0xbe979709	-0.29607418
140	0xbe1b9f41	-0.1519747
141	0xbd01a371	-0.03165001
142	0xbe53c8f5	-0.20682128
143	0xbdc066c1	-0.09394599
144	0xbcdd53d3	-0.02701751
145	0xbdcd0b68	-0.10011941
146	0xbe001517	-0.12508045
147	0xbe4ae806	-0.19815072
148	0xbe1c28f5	-0.15249999
149	0xbd735485	-0.059406776
150	0xbe19f46a	-0.15034643
151	0xbc92b3e5	-0.017908046
152	0xbe71afbc	-0.23602194
153	0xbe174746	-0.14773282
154	0xbe42954e	-0.19002268
155	0xbd06c48c	-0.032902285
156	0xbdcc1210	-0.09964383
157	0x3e44830d	0.19190617
158	0x3edb4770	0.4282794
159	0xbdccf3cb	-0.10007437
160	0xbe00f0bb	-0.12591831
161	0xbeab0001	-0.3339844
162	0xbd8dbf0e	-0.069212064
163	0xbd48c56d	-0.049016405
164	0xbe1c3f51	-0.15258528
165	0x3c2e28a8	0.01062981
166	0x3e03ddf7	0.12877642
167	0xbdd7ffd6	-0.10546844
168	0xbce22975	-0.027607659
169	0xbe48a179	-0.19592847
170	0xbd9cd82b	-0.07658418
171	0xbcd0eb80	-0.02550292
172	0xbe16bd07	-0.14720546
173	0x3d3436d3	0.043997597
174	0xbe1d0f44	-0.15337855
175	0x3a84f2d8	0.0010143174
176	0xbd171c53	-0.036892246
177	0xbda8ab62	-0.08235814
178	0xbe6c8ba4	-0.23100144
179	0xbde15ba8	-0.1100381
180	0x3d7b918c	0.0614181
181	0x3e4bbdc4	0.19896609
182	0xbe3574b1	-0.17720295
183	0xbaf41cf7	-0.0018624355
184	0xbe3b5f1c	-0.18298
185	0xbe0bd61a	-0.13655892
186	0xbd0cfd43	-0.034421217
187	0xbd5c1843	-0.053734075
188	0x3d9f17e5	0.077682294
189	0x3e83c8c6	0.25739115
190	0x3c1e9079	0.009678
191	0xbd5217a6	-0.051292084
192	0xbe2af5bd	-0.16695304
193	0xbd574afb	-0.05256174
194	0x3e228de2	0.15874436
195	0xbd2ddff1	-0.042449895
196	0x3d85ea00	0.065387726
197	0xbe518396	-0.20460352
198	0xbe1de98f	-0.15421127
199	0xbdc63569	-0.09678156
200	0xbe1a8e69	-0.15093388
201	0x3dbcb23c	0.09213683
202	0xbdc84fca	-0.097808436
203	0xbd030b1f	-0.031993028
204	0xbdee1fdc	-0.116271704
205	0xbc0b02d6	-0.008484563
206	0xbc93013e	-0.017944928
207	0xbe569e22	-0.2095876
208	0xbe22ee6b	-0.15911262
209	0xbd1d75f3	-0.038442563
210	0xbd3d12fa	-0.046160676
211	0xbe091627	-0.13387357
212	0x3c93cde5	0.018042514
213	0xbd6bbe98	-0.05755481
214	0xbe4406b3	-0.1914318
215	0x3d53a788	0.051673442
216	0xbe22bda7	-0.15892659
217	0xbc2ca4c8	-0.010537334
218	0xbe14ef4f	-0.14544414
219	0xbd946302	-0.07245447
220	0xbd8edb2f	-0.069754
221	0x3e2d09aa	0.16898218
222	0x3f11d9cc	0.56972957
223	0xbe7032d2	-0.23456886
224	0x3c8bd28d	0.017068172
225	0xbd56270f	-0.052283343
226	0xbe5b01b6	-0.21387371
227	0xbcfd9ae2	-0.030957643
228	0xbd255b49	-0.04037026
229	0xbdab49a5	-0.08363656
230	0x3e4a7c68	0.1977402
231	0xbe427115	-0.1898845
232	0xbe389b19	-0.18027915
233	0xbe2fa0c8	-0.17151177
234	0xbe299f09	-0.16564573
235	0xbd631581	-0.05544043
236	0x3ba96935	0.0051700124
237	0xbb4c3586	-0.0031159832
238	0xbd5f77ed	-0.05455773
239	0xbcdd0e67	-0.026984407
240	0xbdd11efe	-0.102109894
241	0xbdfb1ded	-0.12261567
242	0x3acc6b82	0.0015596005
243	0xbddf48e3	-0.10902574
244	0xbdcb661d	-0.09931586
245	0x3e921bc0	0.28536797
246	0xbe11d1bb	-0.14240162
247	0xbdedcaf8	-0.11610979
248	0xbe4d3921	-0.20041324
249	0xbdf215c8	-0.11820561
250	0xbdf8f06b	-0.12155231
251	0xbdb76683	-0.089550994
252	0xbd9ab3f6	-0.07553856
253	0x3e536f82	0.20648006
254	0xbd7b0b39	-0.06129
255	0xbd0d9cb5	-0.034573276

main.2.bias f4 [32]
0	0xbb7a5882	-0.0038199727
1	0x3d5e54fa	0.05428026
2	0xbe32f1e3	-0.17475085
3	0xbd7be4c5	-0.06149747
4	0x3d12725f	0.035753604
5	0xbd994232	-0.07483329
6	0x3c877bb0	0.016538471
7	0xbdaae63b	-0.08344694
8	0xbde526f3	-0.111890696
9	0x3d248771	0.04016823
10	0x3e1c2ede	0.15252253
11	0x3de0bc81	0.10973454
12	0x3d20ca17	0.039255228
13	0x3ba35d71	0.0049855043
14	0xbda0a88d	-0.078446485
15	0x3b94b6cc	0.0045383926
16	0x3e550fcc	0.20806807
17	0x3cdae150	0.026718765
18	0xbe04d1a0	-0.1297059
19	0x3d224ebb	0.039625864
20	0x3d817352	0.06320824
21	0xbe6be337	-0.23035894
22	0x3e0823f2	0.13294962
23	0x3d9e688f	0.07734787
24	0x3e08ccad	0.13359328
25	0x3e0bfae6	0.13669929
26	0xbe2bd1d6	-0.16779265
27	0x3da9243d	0.08258865
28	0xbdebc4d1	-0.11512149
29	0xbceb820f	-0.02874854
30	0x3d1e9633	0.03871746
31	0x3d4745a6	0.048650406

main.4.weight f4 [16, 32]
0	0xbe2b8027	-0.16748105
1	0xbdfd35cc	-0.123637766
2	0xbd423990	-0.047418177
3	0xbcef176c	-0.029185973
4	0xbe8549a0	-0.26032734
5	0xbd914770	-0.07093704
6	0x3d2703a4	0.040774956
7	0xbe82113f	-0.25403783
8	0xbcc61502	-0.02417994
9	0xbd357c68	-0.044308096
10	0xbd79546f	-0.060871538
11	0xbded4179	-0.115847535
12	0xbd4e9cec	-0.05044262
13	0xbe615191	-0.22003771
14	0x3c65f2ff	0.014034986
15	0xbd748686	-0.059698604
16	0xbee51f5d	-0.4475049
17	0xbe59cf7d	-0.21270557
18	0xbdccf280	-0.10007191
19	0x3d212776	0.039344274
20	0x3f37ba8c	0.7176902
21	0x3dd51b74	0.10405627
22	0xbe6f1bab	-0.23350398
23	0x3e1c9f44	0.1529513
24	0x3e4037bf	0.18771265
25	0x3daa925a	0.083286956
26	0xbeae0219	-0.33985975
27	0xbd081b73	-0.033229303
28	0x3daa9325	0.08328847
29	0xbbb192c6	-0.005419108
30	0xbdb83c16	-0.089958355
31	0xbe787df3	-0.24266796
32	0xbe86b425	-0.26309314
33	0x3e51a46b	0.20472877
34	0xbe498b91	-0.19682147
35	0xbe33092e	-0.1748397
36	0x3e2cab5b	0.16862242
37	0xbccd2d63	-0.025046056
38	0x3e56554d	0.20930977
39	0x3e5bb443	0.21455483
40	0xbe54a0f6	-0.20764527
41	0xbcf4e39c	-0.029893689
42	0x3deb0702	0.11475946
43	0x3d89dad9	0.06731195
44	0x3d971f0d	0.07378969
45	0x3e401286	0.18757066
46	0x3da0d6db	0.078534804
47	0x3e4291b9	0.19000901
48	0x3e93534f	0.28774497
49	0x3e837d19	0.2568138
50	0xbe4d6915	-0.20059617
51	0x3d5d896e	0.05408614
52	0xbd4edb81	-0.050502304
53	0xbe174f0e	-0.1477625
54	0x3e2b2887	0.16714679
55	0xbe8f5e8b	-0.28001818
56	0xbe32a9e3	-0.17447619
57	0x3ddc53ee	0.10758196
58	0x3e8ce0d0	0.27515268
59	0x3e81e237	0.253679
60	0xbe823569	-0.25431374
61	0x3e43a368	0.19105303
62	0x3e264d12	0.16240337
63	0x3d7a29d4	0.061075047
64	0x3d71c3dc	0.059024677
65	0x3d934072	0.07190026
66	0xbe8698ec	-0.26288545
67	0xbe6bfadc	-0.23044914
68	0x3d14585f	0.03621709
69	0x3c246788	0.010034449
70	0xbe072eb6	-0.13201413
71	0xbe49f46f	-0.1972215
72	0x3e86d32b	0.26332983
73	0x3e494d41	0.19658376
74	0x3dd048a2	0.101701036
75	0xbd4f2133	-0.05056877
76	0xbe00bfaf	-0.12573121
77	0xbd775b1c	-0.060389623
78	0xbda9e3ad	-0.08295379
79	0x3d0cf67f	0.034414764
80	0x3eafa306	0.34304065
81	0x3db9ee1c	0.09078619
82	0xbea8381d	-0.3285531
83	0xbc09a28f	-0.008400573
84	0xbf03b938	-0.51454496
85	0x3d0a940f	0.033832606
86	0xbdbfdca9	-0.093682595
87	0xbe4b6907	-0.19864284
88	0xbd751b4a	-0.059840478
89	0x3e1d23e8	0.15345728
90	0x3ec5ed32	0.38657528
91	0xbe601257	-0.21881996
92	0x3e07f970	0.13278747
93	0xbe28d422	-0.16487172
94	0xbdff321b	-0.12460729
95	0xbcc17752	-0.023616467
96	0x3a8b7aeb	0.0010641491
97	0xbdf78e2c	-0.12087664
98	0x3d906ce9	0.07052023
99	0xbe83361f	-0.2562723
100	0x3cfc1020	0.030769408
101	0xbde80a77	-0.11330121
102	0xbe106902	-0.14102557
103	0xbe23d525	-0.15999277
104	0x3e135a8a	0.14390007
105	0xbe378beb	-0.17924468
106	0xbe6efdc4	-0.23338991
107	0xbe71f5c2	-0.23628905
108	0xbe6c43dc	-0.23072761
109	0x3c3e2d53	0.011607486
110	0x3ce1282a	0.027484972
111	0xbe39db42	-0.18150046
112	0xbec87759	-0.39153555
113	0xbe177b5d	-0.14793153
114	0xbc72dd67	-0.014823294
115	0xbd24d96c	-0.040246412
116	0x3eedafdb	0.4642323
117	0x3d324379	0.04352138
118	0x3d88bc51	0.066765435
119	0x3e82ae84	0.2552377
120	0x3e6fc95b	0.23416655
121	0xbe82f6f1	-0.25579026
122	0xbe96a50f	-0.29422805
123	0x3d6b85aa	0.05750052
124	0x3e50a8b6	0.20376858
125	0xbd22423d	-0.03961395
126	0x3ca18fc4	0.019721873
127	0xbd16a0a0	-0.036774278
128	0x3da9ba3f	0.08287477
129	0xbe249638	-0.16072929
130	0x3e33c0e5	0.17554052
131	0xbcde3f09	-0.027129667
132	0xbcaf11fa	-0.021370877
133	0xbe68627b	-0.22693817
134	0xbdcb7a87	-0.099354796
135	0x3d81a16f	0.06329619
136	0x3d6beea6	0.05760064
137	0xbd3b8e9c	-0.0457903
138	0xbe6024c4	-0.21889025
139	0x3d19537e	0.03743314
140	0xbd89ef5b	-0.067351066
141	0xbdef1aab	-0.116750084
142	0xbd91bd2f	-0.07116162
143	0xbe6a505a	-0.22882214
144	0xbecacf6d	-0.39611378
145	0x3d3b388c	0.045708224
146	0xbdf3ff30	-0.119139075
147	0xbe2b77b6	-0.16744885
148	0xbcf32b23	-0.029683655
149	0x3e628625	0.22121485
150	0x3d61f259	0.05516276
151	0xbe074b38	-0.13212287
152	0x3d972594	0.07380214
153	0xbca2983a	-0.019847978
154	0xbc77d436	-0.015126279
155	0xbe0b1961	-0.135839
156	0x3c38e795	0.011285682
157	0xbe138a5b	-0.14408247
158	0xbde9b81d	-0.1141207
159	0xbe46a7eb	-0.19399993
160	0x3dc1228b	0.09430417
161	0x3e702377	0.23451029
162	0xbe42807d	-0.18994327
163	0xbe3a8db9	-0.18218125
164	0x3de47dc9	0.11156804
165	0x3e716b51	0.23576094
166	0x3da6225f	0.081120245
167	0x3da8a98b	0.08235463
168	0x3d4f1a70	0.050562322
169	0xbe005d7b	-0.1253566
170	0x3e862cd0	0.26206064
171	0xbd20cdb1	-0.039258663
172	0x3de11a00	0.10991287
173	0x3d8feee2	0.07027985
174	0x3e46eb0f	0.19425605
175	0x3e1e7b1e	0.15476653
176	0x3e557a75	0.20847495
177	0x3e3b5d19	0.18297233
178	0xbe2ab813	-0.16671781
179	0xbc77784b	-0.015104364
180	0xbd4c20f3	-0.04983611
181	0xbab49eab	-0.0013780197
182	0x3ddb85c7	0.107188754
183	0xbed039fc	-0.4066924
184	0xbe934a1d	-0.2876748
185	0x3e594d04	0.21220785
186	0xbd6565c1	-0.056005243
187	0xbcfa2738	-0.03053628
188	0xbdc4f0c3	-0.09616234
189	0x3c863d00	0.016386509
190	0xbdd8916a	-0.105746105
191	0x3e1cb0bc	0.15301794
192	0xbd376bc1	-0.044780497
193	0xbe078d3e	-0.13237473
194	0x3dbdbd8b	0.09264668
195	0x3c312684	0.0108124055
196	0xbe6d558f	-0.2317717
197	0xbe802fb1	-0.25036386
198	0xbdf290f4	-0.11844054
199	0xbd16bd52	-0.036801644
200	0xbcefaa05	-0.029255876
201	0xbda2dbf4	-0.07952109
202	0x3c690c1a	0.014224077
203	0xbb2c6e94	-0.0026311027
204	0xbe1b1dda	-0.15148106
205	0xbe062a48	-0.13102067
206	0xbe0edbe7	-0.13951074
207	0x3d41f018	0.047348112
208	0xbd8e8059	-0.06958074
209	0xbe69582e	-0.22787544
210	0xbd91ddbc	-0.071223706
211	0xbdab2123	-0.0835593
212	0x3f2161bc	0.63039756
213	0x3e23174f	0.1592686
214	0x3b8b6474	0.0042539183
215	0x3e859004	0.26086438
216	0x3a3fcde1	0.000731675
217	0xbcccf4e7	-0.025019122
218	0xbe72e3f3	-0.23719768
219	0xbe189c21	-0.14903308
220	0x3dcca4e6	0.099923894
221	0x3b8ea021	0.004352585
222	0xbe11f2c0	-0.14252758
223	0x3d7cc9a7	0.06171575
224	0x37e52624	2.7316688e-05
225	0x3df3b6a5	0.11900071
226	0xbe1b22bb	-0.15149967
227	0x3d4b1fc3	0.049590837
228	0x3d9953b8	0.07486671
229	0x3e3fe2dc	0.18738884
230	0x3dba2104	0.090883285
231	0x3e2f5539	0.17122354
232	0xbe75df5e	-0.24010989
233	0xbe5c3da6	-0.21507892
234	0x3d7c2a94	0.061564043
235	0x3e4da1a0	0.20081186
236	0x3e3cdf53	0.18444566
237	0x3dc7d581	0.097575195
238	0x3e430a2a	0.19046846
239	0x3dba01fc	0.0908241
240	0x3e01a67e	0.12661168
241	0x3d306dfb	0.043073636
242	0x3d7a9244	0.061174646
243	0x3e80984f	0.25116202
244	0xbde9bfc2	-0.11413528
245	0xbe167f33	-0.1469696
246	0x3e762a44	0.2403956
247	0xbe8879a5	-0.26655307
248	0xbe281fdb	-0.16418402
249	0x3d8ea6d6	0.06965415
250	0xbd93f75d	-0.07224915
251	0xbccba0bf	-0.024856923
252	0xbd6be5e1	-0.057592276
253	0x3e220475	0.15822013
254	0x3dca65a2	0.09882666
255	0x3e1a8fcd	0.15093918

main.4.bias f4 [16]
0	0xbd087317	-0.033312883
1	0x3e6cd06d	0.23126383
2	0x3e9e1d60	0.30881786
3	0xbd89f1db	-0.067355834
4	0xbea7d7bb	-0.32781777
5	0xbc32ba01	-0.010908605
6	0xbe054dab	-0.13017909
7	0x3cc506fe	0.024051186
8	0xbda0ce9d	-0.07851908
9	0xbe6e9b86	-0.23301515
10	0xbd30ebbb	-0.04319356
11	0xbde3363e	-0.1109433
12	0x3da911cc	0.082553476
13	0x3e7bc040	0.24585056
14	0x3c7ee3df	0.015557258
15	0x3dfdeb76	0.12398426

main.6.weight f4 [8, 16]
0	0xbe727f3f	-0.23681353
1	0x3dd9ad03	0.106287025
2	0xbb33abc5	-0.0027415615
3	0xbe803377	-0.25039265
4	0xbe9bf316	-0.30458897
5	0x3c253a28	0.010084666
6	0xbcec5524	-0.028849192
7	0x3eae3f1c	0.34032524
8	0xbe9d129a	-0.30678254
9	0xbe1c071b	-0.15237086
10	0x3e878543	0.26468858
11	0xbd802538	-0.06257099
12	0x3e147716	0.14498553
13	0x3e6ae3a4	0.229384
14	0x3de0da9d	0.10979197
15	0x3c9fed8e	0.019522455
16	0x3e804d7f	0.25059125
17	0xbe8d7c70	-0.27634
18	0xbeb7c208	-0.35890222
19	0xbc70f636	-0.014707139
20	0x3d6841c1	0.056703333
21	0xbdacc3c1	-0.084357746
22	0x3eafbefb	0.34325394
23	0xbe36a32a	-0.1783568
24	0x3e828704	0.25493634
25	0x3edb8910	0.42878008
26	0xbe1f7cd8	-0.15574968
27	0x3e96e841	0.2947407
28	0xbe64e558	-0.22353113
29	0xbe9a2c1a	-0.30111772
30	0x3e143a93	0.1447547
31	0xbcfdb089	-0.030967968
32	0x3eb7db9f	0.35909745
33	0x3e054894	0.13015968
34	0xbeeb0d94	-0.45908797
35	0x3e8f7fef	0.28027293
36	0x3d84f5ab	0.0649217
37	0x3da6c4f0	0.081430316
38	0x3ec5d4fb	0.38639054
39	0x3e1ad507	0.15120326
40	0xbde8163e	-0.11332367
41	0x3ea57c02	0.32321173
42	0x3e38831f	0.18018769
43	0x3dc8d3e8	0.09806043
44	0xbeaf9392	-0.34292275
45	0xbea97ffd	-0.3310546
46	0xbe83ce84	-0.25743496
47	0xbe873b3a	-0.26412374
48	0xbe1a256b	-0.15053336
49	0x3e5becb4	0.21477014
50	0xbe2799c9	-0.16367258
51	0xbd92d9dd	-0.071704604
52	0x3dbe7416	0.092994854
53	0x3e11fc67	0.1425644
54	0xbe4a2b55	-0.19743092
55	0xbc197117	-0.009365342
56	0xbcb6cb39	-0.022313701
57	0xbe3aa96e	-0.18228695
58	0xbe005b68	-0.12534869
59	0xbdca530f	-0.098791234
60	0x3e29627e	0.16541478
61	0x3e88b1d5	0.26698175
62	0x3e65c46e	0.22438213
63	0xbe019c21	-0.12657215
64	0x3ef1a658	0.47197223
65	0xbe9f9093	-0.3116499
66	0xbecca2fc	-0.39968097
67	0x3e5e50fa	0.21710578
68	0x3e77bcc3	0.241931
69	0xbe749f5c	-0.23888916
70	0x3ec051be	0.37562364
71	0xbe7ad3f6	-0.24494919
72	0x3e1bd604	0.15218359
73	0x3d93a3f7	0.07209008
74	0xbd41018c	-0.047120616
75	0x3e0a02ad	0.13477583
76	0xbe339358	-0.17536676
77	0xbd8831b0	-0.06650102
78	0x3d563932	0.05230064
79	0x3dbfb204	0.09360126
80	0xbe1937f4	-0.1496275
81	0x3e86138d	0.2618679
82	0x3e2e58eb	0.17026107
83	0xbcf649e0	-0.030064523
84	0xbe9cfcea	-0.30661708
85	0x3e6a8bc6	0.22904882
86	0xbdfa51df	-0.12222647
87	0x3d1d98c6	0.038475774
88	0xbda89144	-0.08230832
89	0xbe32e8ab	-0.17471568
90	0x3e867f04	0.2626878
91	0xbe0ace76	-0.13555321
92	0xbccdd207	-0.025124563
93	0x3de6aedf	0.11263823
94	0x3d981794	0.07426372
95	0x3e84710f	0.25867507
96	0xbe833dc1	-0.25633052
97	0x3e1f9736	0.15585026
98	0x3ec4133a	0.3829592
99	0xbe05e2ea	-0.13074842
100	0x3d9773e6	0.07395153
101	0xbdb96bde	-0.09053777
102	0xbe7c7d27	-0.24657117
103	0x3dc310f4	0.09524718
104	0x3de95a3d	0.11394165
105	0xbc923722	-0.017848555
106	0xbcb9056b	-0.022585591
107	0x3e054090	0.1301291
108	0x3d16a286	0.03677609
109	0xbe22fd17	-0.15916859
110	0xbbace025	-0.0052757435
111	0xbe154a1a	-0.14579049
112	0xbda7f0b8	-0.0820021
113	0xbe4eb867	-0.20187531
114	0x3d87ed4e	0.06637059
115	0xbe22cef0	-0.15899253
116	0x3e085932	0.13315275
117	0xbe4513b1	-0.19245793
118	0xbe25397e	-0.16135213
119	0xbea06e93	-0.3133436
120	0xbd9c3d44	-0.07628873
121	0x3e82d21b	0.25550923
122	0xbd1c05fd	-0.03809165
123	0x3e8f53b9	0.27993563
124	0x3dbad4d2	0.091226235
125	0x3def2e9a	0.116788104
126	0x3e2a50ea	0.16632429
127	0xbe7d393a	-0.24728861

main.6.bias f4 [8]
0	0x3e1d8a7d	0.1538486
1	0xbcece108	-0.028915897
2	0x3d755f0f	0.059905108
3	0xbd5c4443	-0.053776037
4	0xbdbe2bd1	-0.09285701
5	0x3ec9b590	0.39396334
6	0x3db02d10	0.08602345
7	0xbe243bbd	-0.16038413

main.8.weight f4 [1, 8]
0	0x3eab1273	0.33412513
1	0xbe9dc634	-0.3081528
2	0xbe76577d	-0.24056812
3	0x3e85fffc	0.26171863
4	0xbee863f6	-0.45388764
5	0x3eaf4535	0.34232488
6	0x3b5d9682	0.0033811633
7	0xbde8bd76	-0.11364262
